trained.tflite (tflite, 293688 bytes, 4 tensors)

sequential/y_pred/MatMul i1 [4, 256] scale=0.0015398117 zero_point=0
0	0xdf	-0.050813787
1	0xbd	-0.103167385
2	0x97	-0.16168024
3	0x4c	0.11702569
4	0x4a	0.113946065
5	0x4c	0.11702569
6	0x39	0.08776927
7	0x42	0.10162757
8	0xc9	-0.08468965
9	0x3f	0.09700814
10	0x5c	0.14166267
11	0x52	0.12626456
12	0xbe	-0.10162757
13	0xbd	-0.103167385
14	0xb4	-0.11702569
15	0xa9	-0.13396361
16	0xb7	-0.112406254
17	0x2a	0.06467209
18	0xa7	-0.13704324
19	0x32	0.07699059
20	0xa8	-0.13550343
21	0x3c	0.092388704
22	0xcb	-0.081610024
23	0x41	0.10008776
24	0x29	0.06313228
25	0x62	0.15090156
26	0x2c	0.06775171
27	0x66	0.1570608
28	0x60	0.14782193
29	0xaf	-0.12472475
30	0x97	-0.16168024
31	0xf4	-0.018477742
32	0x3f	0.09700814
33	0x1d	0.04465454
34	0x6b	0.16475986
35	0x67	0.15860061
36	0xdf	-0.050813787
37	0xe3	-0.04465454
38	0xee	-0.02771661
39	0xa8	-0.13550343
40	0xd5	-0.0662119
41	0xa8	-0.13550343
42	0xc2	-0.09546833
43	0x27	0.060052656
44	0xba	-0.10778682
45	0xa8	-0.13550343
46	0xfc	-0.006159247
47	0xea	-0.033875857
48	0x54	0.12934418
49	0x20	0.049273975
50	0x34	0.08007021
51	0xba	-0.10778682
52	0x57	0.13396361
53	0x54	0.12934418
54	0xb6	-0.113946065
55	0xbd	-0.103167385
56	0xb0	-0.123184934
57	0x31	0.07545078
58	0x01	0.0015398117
59	0x9f	-0.14936174
60	0xd6	-0.06467209
61	0x0a	0.015398117
62	0x1e	0.046194352
63	0x19	0.038495295
64	0x2f	0.07237115
65	0xcb	-0.081610024
66	0x24	0.05543322
67	0xf8	-0.012318494
68	0xe9	-0.035415668
69	0x9c	-0.15398118
70	0xff	-0.0015398117
71	0x48	0.11086644
72	0x44	0.1047072
73	0xbb	-0.10624701
74	0xaa	-0.1324238
75	0xef	-0.0261768
76	0xcd	-0.0785304
77	0x9e	-0.15090156
78	0xae	-0.12626456
79	0x02	0.0030796234
80	0x36	0.083149835
81	0xac	-0.12934418
82	0x2c	0.06775171
83	0x18	0.036955483
84	0x99	-0.15860061
85	0xe4	-0.04311473
86	0xff	-0.0015398117
87	0xaa	-0.1324238
88	0xad	-0.12780437
89	0x59	0.13704324
90	0xc3	-0.093928516
91	0xe7	-0.038495295
92	0xe0	-0.049273975
93	0x04	0.006159247
94	0xac	-0.12934418
95	0x4f	0.12164512
96	0x30	0.07391097
97	0x9e	-0.15090156
98	0xf3	-0.020017553
99	0x4c	0.11702569
100	0xd4	-0.06775171
101	0x9e	-0.15090156
102	0xdc	-0.05543322
103	0xc4	-0.092388704
104	0xf5	-0.016937928
105	0x0b	0.016937928
106	0x3f	0.09700814
107	0xef	-0.0261768
108	0xd0	-0.07391097
109	0x99	-0.15860061
110	0x35	0.081610024
111	0x4f	0.12164512
112	0xd6	-0.06467209
113	0x57	0.13396361
114	0x0c	0.018477742
115	0xaa	-0.1324238
116	0xa0	-0.14782193
117	0x28	0.061592467
118	0x81	-0.19555609
119	0x16	0.033875857
120	0x52	0.12626456
121	0x24	0.05543322
122	0xad	-0.12780437
123	0x11	0.0261768
124	0xff	-0.0015398117
125	0x5d	0.14320248
126	0x39	0.08776927
127	0x16	0.033875857
128	0xc4	-0.092388704
129	0x23	0.05389341
130	0xe9	-0.035415668
131	0xe6	-0.040035106
132	0x60	0.14782193
133	0x41	0.10008776
134	0x0e	0.021557365
135	0xe3	-0.04465454
136	0xb7	-0.112406254
137	0x3a	0.08930908
138	0x41	0.10008776
139	0xff	-0.0015398117
140	0x36	0.083149835
141	0x45	0.10624701
142	0x35	0.081610024
143	0x05	0.0076990584
144	0xda	-0.058512844
145	0xb9	-0.10932663
146	0x9f	-0.14936174
147	0x60	0.14782193
148	0x0b	0.016937928
149	0x0b	0.016937928
150	0x62	0.15090156
151	0x1b	0.041574918
152	0xb8	-0.11086644
153	0x05	0.0076990584
154	0x2e	0.070831336
155	0x4f	0.12164512
156	0x99	-0.15860061
157	0xd3	-0.069291525
158	0xbd	-0.103167385
159	0x03	0.0046194354
160	0x3f	0.09700814
161	0x05	0.0076990584
162	0xa1	-0.1462821
163	0x3c	0.092388704
164	0x2a	0.06467209
165	0xd2	-0.070831336
166	0x58	0.13550343
167	0xdd	-0.05389341
168	0x44	0.1047072
169	0xe9	-0.035415668
170	0xcc	-0.08007021
171	0xae	-0.12626456
172	0x20	0.049273975
173	0x4e	0.12010531
174	0x02	0.0030796234
175	0x42	0.10162757
176	0x2c	0.06775171
177	0xfa	-0.009238871
178	0xab	-0.13088399
179	0x45	0.10624701
180	0xad	-0.12780437
181	0xbe	-0.10162757
182	0xff	-0.0015398117
183	0xa4	-0.14166267
184	0x13	0.029256422
185	0x3d	0.093928516
186	0x32	0.07699059
187	0xb0	-0.123184934
188	0xe9	-0.035415668
189	0xe1	-0.047734164
190	0x5f	0.1462821
191	0x02	0.0030796234
192	0xde	-0.0523536
193	0x33	0.0785304
194	0x51	0.12472475
195	0xac	-0.12934418
196	0x12	0.02771661
197	0x5c	0.14166267
198	0x63	0.15244137
199	0xb0	-0.123184934
200	0x46	0.10778682
201	0x35	0.081610024
202	0xad	-0.12780437
203	0x28	0.061592467
204	0x20	0.049273975
205	0xa4	-0.14166267
206	0x44	0.1047072
207	0xec	-0.030796234
208	0xc8	-0.08622946
209	0x39	0.08776927
210	0xf8	-0.012318494
211	0x58	0.13550343
212	0xed	-0.029256422
213	0xd1	-0.07237115
214	0xdf	-0.050813787
215	0x47	0.10932663
216	0xa5	-0.14012286
217	0x32	0.07699059
218	0x48	0.11086644
219	0xbb	-0.10624701
220	0xae	-0.12626456
221	0x50	0.123184934
222	0xae	-0.12626456
223	0xb4	-0.11702569
224	0x93	-0.16783948
225	0x50	0.123184934
226	0x12	0.02771661
227	0x41	0.10008776
228	0x03	0.0046194354
229	0xda	-0.058512844
230	0x36	0.083149835
231	0xdd	-0.05389341
232	0x52	0.12626456
233	0xa1	-0.1462821
234	0x1c	0.04311473
235	0xe8	-0.036955483
236	0xbb	-0.10624701
237	0x49	0.112406254
238	0x1d	0.04465454
239	0x18	0.036955483
240	0xfc	-0.006159247
241	0xa6	-0.13858305
242	0xa5	-0.14012286
243	0xf7	-0.013858305
244	0xae	-0.12626456
245	0x03	0.0046194354
246	0xa3	-0.14320248
247	0x54	0.12934418
248	0x2c	0.06775171
249	0x38	0.08622946
250	0xe8	-0.036955483
251	0xd5	-0.0662119
252	0x37	0.08468965
253	0x39	0.08776927
254	0xe3	-0.04465454
255	0x19	0.038495295

sequential/dense_2/MatMul i1 [256, 256] scale=0.0016449854 zero_point=0
0	0x33	0.08389425
1	0x2d	0.07402434
2	0xf4	-0.019739825
3	0x00	0.0
4	0xec	-0.032899708
5	0x46	0.11514898
6	0xbc	-0.11185901
7	0x1c	0.04605959
8	0xff	-0.0016449854
9	0xce	-0.08224927
10	0xe5	-0.044414606
11	0xde	-0.055929504
12	0x44	0.11185901
13	0x27	0.06415443
14	0xca	-0.08882921
15	0x3a	0.095409155
16	0xe5	-0.044414606
17	0xd0	-0.0789593
18	0x17	0.037834663
19	0x0b	0.01809484
20	0x41	0.10692405
21	0xed	-0.031254724
22	0xcc	-0.085539244
23	0xe0	-0.052639533
24	0x20	0.052639533
25	0xec	-0.032899708
26	0xe6	-0.042769622
27	0x10	0.026319766
28	0x1c	0.04605959
29	0x42	0.10856903
30	0xcc	-0.085539244
31	0x45	0.11350399
32	0x16	0.03618968
33	0xf2	-0.023029795
34	0xb4	-0.1250189
35	0xee	-0.029609738
36	0xfe	-0.0032899708
37	0xe0	-0.052639533
38	0x17	0.037834663
39	0xd3	-0.07402434
40	0xf5	-0.01809484
41	0x3a	0.095409155
42	0xde	-0.055929504
43	0x04	0.0065799416
44	0x00	0.0
45	0xcf	-0.080604285
46	0xf0	-0.026319766
47	0x08	0.013159883
48	0xfe	-0.0032899708
49	0xbf	-0.10692405
50	0x02	0.0032899708
51	0x2e	0.075669326
52	0xd9	-0.06415443
53	0xc2	-0.1019891
54	0x0c	0.019739825
55	0xfa	-0.009869913
56	0xe4	-0.04605959
57	0xd3	-0.07402434
58	0x12	0.029609738
59	0xd2	-0.075669326
60	0x33	0.08389425
61	0x42	0.10856903
62	0xe3	-0.047704577
63	0x07	0.011514897
64	0x04	0.0065799416
65	0xde	-0.055929504
66	0x1a	0.042769622
67	0xcb	-0.08718423
68	0xf8	-0.013159883
69	0x1d	0.047704577
70	0x25	0.06086446
71	0x00	0.0
72	0xf8	-0.013159883
73	0x1e	0.04934956
74	0xd2	-0.075669326
75	0xc5	-0.09705414
76	0xd8	-0.065799415
77	0xc7	-0.09376417
78	0xbf	-0.10692405
79	0x11	0.027964752
80	0xf6	-0.016449854
81	0x30	0.0789593
82	0x48	0.11843895
83	0x03	0.0049349563
84	0x44	0.11185901
85	0x1d	0.047704577
86	0x02	0.0032899708
87	0x1e	0.04934956
88	0x40	0.105279066
89	0xdb	-0.06086446
90	0x33	0.08389425
91	0xd1	-0.07731432
92	0x27	0.06415443
93	0xc8	-0.09211918
94	0x4b	0.1233739
95	0xe6	-0.042769622
96	0x11	0.027964752
97	0xbd	-0.110214025
98	0xee	-0.029609738
99	0xeb	-0.034544695
100	0x21	0.054284517
101	0x1e	0.04934956
102	0xe7	-0.041124634
103	0x12	0.029609738
104	0x07	0.011514897
105	0x1d	0.047704577
106	0xfa	-0.009869913
107	0x45	0.11350399
108	0x3c	0.09869912
109	0xc4	-0.09869912
110	0xe4	-0.04605959
111	0xef	-0.027964752
112	0xd3	-0.07402434
113	0xbe	-0.10856903
114	0x2d	0.07402434
115	0xdb	-0.06086446
116	0xce	-0.08224927
117	0x06	0.009869913
118	0x0c	0.019739825
119	0xf7	-0.014804869
120	0x1c	0.04605959
121	0x30	0.0789593
122	0x0b	0.01809484
123	0xdb	-0.06086446
124	0x35	0.08718423
125	0xf2	-0.023029795
126	0xeb	-0.034544695
127	0xdd	-0.05757449
128	0xfa	-0.009869913
129	0x10	0.026319766
130	0xe9	-0.037834663
131	0x3f	0.10363408
132	0x31	0.080604285
133	0xbd	-0.110214025
134	0x03	0.0049349563
135	0xf8	-0.013159883
136	0x20	0.052639533
137	0x48	0.11843895
138	0xe8	-0.03947965
139	0xe0	-0.052639533
140	0x0a	0.016449854
141	0x3b	0.09705414
142	0x0a	0.016449854
143	0xe4	-0.04605959
144	0x06	0.009869913
145	0xe0	-0.052639533
146	0x2a	0.06908939
147	0x38	0.09211918
148	0xd3	-0.07402434
149	0xf4	-0.019739825
150	0xf0	-0.026319766
151	0xcf	-0.080604285
152	0xd9	-0.06415443
153	0x3a	0.095409155
154	0x3c	0.09869912
155	0xd8	-0.065799415
156	0xc9	-0.090474196
157	0xfa	-0.009869913
158	0xd4	-0.07237936
159	0x16	0.03618968
160	0xc4	-0.09869912
161	0x2e	0.075669326
162	0x2e	0.075669326
163	0x3f	0.10363408
164	0x33	0.08389425
165	0x48	0.11843895
166	0x2e	0.075669326
167	0x43	0.110214025
168	0x05	0.008224927
169	0x4c	0.1250189
170	0xdd	-0.05757449
171	0x41	0.10692405
172	0x2f	0.07731432
173	0xe2	-0.04934956
174	0xc5	-0.09705414
175	0xeb	-0.034544695
176	0xff	-0.0016449854
177	0xef	-0.027964752
178	0xfa	-0.009869913
179	0x3a	0.095409155
180	0x2b	0.070734374
181	0x27	0.06415443
182	0x14	0.032899708
183	0xfa	-0.009869913
184	0x3d	0.10034411
185	0x41	0.10692405
186	0x39	0.09376417
187	0xf1	-0.02467478
188	0xfb	-0.008224927
189	0xec	-0.032899708
190	0x2a	0.06908939
191	0x16	0.03618968
192	0xe8	-0.03947965
193	0xf6	-0.016449854
194	0x31	0.080604285
195	0x24	0.059219476
196	0xd6	-0.06908939
197	0x1e	0.04934956
198	0x20	0.052639533
199	0xd3	-0.07402434
200	0x2d	0.07402434
201	0xce	-0.08224927
202	0x40	0.105279066
203	0xc9	-0.090474196
204	0x46	0.11514898
205	0x05	0.008224927
206	0x17	0.037834663
207	0x31	0.080604285
208	0x2f	0.07731432
209	0xfb	-0.008224927
210	0xd8	-0.065799415
211	0x27	0.06415443
212	0xdf	-0.054284517
213	0xf8	-0.013159883
214	0xdd	-0.05757449
215	0xe8	-0.03947965
216	0xd0	-0.0789593
217	0xc1	-0.10363408
218	0xd7	-0.0674444
219	0x3b	0.09705414
220	0x11	0.027964752
221	0x0a	0.016449854
222	0xcf	-0.080604285
223	0x05	0.008224927
224	0xe1	-0.05099455
225	0x04	0.0065799416
226	0xea	-0.03618968
227	0x10	0.026319766
228	0x21	0.054284517
229	0xdf	-0.054284517
230	0xd9	-0.06415443
231	0xdf	-0.054284517
232	0xd0	-0.0789593
233	0xc6	-0.095409155
234	0xfa	-0.009869913
235	0x03	0.0049349563
236	0x2f	0.07731432
237	0xc4	-0.09869912
238	0xca	-0.08882921
239	0x48	0.11843895
240	0x02	0.0032899708
241	0xcd	-0.08389425
242	0xd0	-0.0789593
243	0xd2	-0.075669326
244	0xdc	-0.059219476
245	0x02	0.0032899708
246	0x00	0.0
247	0xe2	-0.04934956
248	0xf1	-0.02467478
249	0xdf	-0.054284517
250	0x04	0.0065799416
251	0x17	0.037834663
252	0x3c	0.09869912
253	0x36	0.08882921
254	0x18	0.03947965
255	0x0d	0.021384811

sequential/dense_1/MatMul i1 [256, 256] scale=0.0012079492 zero_point=0
0	0x16	0.026574884
1	0x1a	0.031406682
2	0xe7	-0.03019873
3	0xb8	-0.08697235
4	0x4d	0.093012094
5	0x32	0.06039746
6	0xb5	-0.09059619
7	0x54	0.101467736
8	0xa7	-0.10750748
9	0xe6	-0.031406682
10	0xdb	-0.044694122
11	0x48	0.08697235
12	0x1f	0.037446428
13	0x53	0.10025979
14	0x22	0.041070275
15	0x54	0.101467736
16	0xd3	-0.054357715
17	0xae	-0.09905184
18	0x01	0.0012079492
19	0x06	0.0072476957
20	0xc7	-0.06885311
21	0xd9	-0.04711002
22	0xd5	-0.051941816
23	0x45	0.0833485
24	0xec	-0.024158984
25	0xdb	-0.044694122
26	0xc2	-0.074892856
27	0x42	0.07972465
28	0x17	0.027782833
29	0xa6	-0.10871543
30	0x0f	0.018119238
31	0xe1	-0.037446428
32	0x08	0.009663594
33	0x5d	0.11233928
34	0xe1	-0.037446428
35	0x1b	0.03261463
36	0x32	0.06039746
37	0x45	0.0833485
38	0x5e	0.11354723
39	0x2e	0.055565666
40	0x31	0.059189513
41	0x5a	0.10871543
42	0x2d	0.054357715
43	0x43	0.0809326
44	0x3b	0.071269006
45	0x2c	0.053149767
46	0xf6	-0.012079492
47	0xa9	-0.10509159
48	0x02	0.0024158985
49	0xd2	-0.055565666
50	0xff	-0.0012079492
51	0xc1	-0.076100804
52	0x02	0.0024158985
53	0x40	0.07730875
54	0x4c	0.09180414
55	0x59	0.10750748
56	0xd7	-0.04952592
57	0x23	0.042278223
58	0xc6	-0.07006106
59	0x2c	0.053149767
60	0x5d	0.11233928
61	0x44	0.08214055
62	0x44	0.08214055
63	0xd8	-0.04831797
64	0xba	-0.084556445
65	0xb9	-0.08576439
66	0xe5	-0.03261463
67	0xb7	-0.088180296
68	0x58	0.106299534
69	0x10	0.019327188
70	0xf8	-0.009663594
71	0x10	0.019327188
72	0x50	0.09663594
73	0x34	0.062813364
74	0xc4	-0.07247695
75	0xe4	-0.033822577
76	0xa0	-0.11596313
77	0x31	0.059189513
78	0x3c	0.07247695
79	0x5f	0.114755176
80	0xf0	-0.019327188
81	0x17	0.027782833
82	0x20	0.038654376
83	0xe1	-0.037446428
84	0xab	-0.102675684
85	0xc1	-0.076100804
86	0xeb	-0.025366934
87	0x28	0.04831797
88	0xc9	-0.06643721
89	0x4b	0.09059619
90	0x19	0.03019873
91	0x57	0.10509159
92	0xd0	-0.057981566
93	0xda	-0.04590207
94	0x0c	0.014495391
95	0x15	0.025366934
96	0x48	0.08697235
97	0xd7	-0.04952592
98	0x43	0.0809326
99	0xb3	-0.093012094
100	0xd1	-0.056773614
101	0xbd	-0.0809326
102	0xbf	-0.0785167
103	0x03	0.0036238478
104	0xdb	-0.044694122
105	0x47	0.08576439
106	0x40	0.07730875
107	0xd4	-0.053149767
108	0xe2	-0.036238477
109	0xf9	-0.008455644
110	0xff	-0.0012079492
111	0xf7	-0.010871544
112	0xec	-0.024158984
113	0x2f	0.056773614
114	0x12	0.021743087
115	0x4c	0.09180414
116	0xc9	-0.06643721
117	0xe0	-0.038654376
118	0xdd	-0.042278223
119	0x1c	0.033822577
120	0xd0	-0.057981566
121	0xe7	-0.03019873
122	0xe8	-0.028990783
123	0xc9	-0.06643721
124	0x41	0.0785167
125	0x1c	0.033822577
126	0xb0	-0.09663594
127	0x1a	0.031406682
128	0x31	0.059189513
129	0xfd	-0.0036238478
130	0xbc	-0.08214055
131	0x0e	0.016911289
132	0x19	0.03019873
133	0x72	0.13770622
134	0x4b	0.09059619
135	0xe7	-0.03019873
136	0xbe	-0.07972465
137	0x29	0.04952592
138	0x27	0.04711002
139	0xca	-0.06522926
140	0x3c	0.07247695
141	0xe7	-0.03019873
142	0x2a	0.050733868
143	0x15	0.025366934
144	0x5b	0.10992338
145	0xe3	-0.03503053
146	0xf1	-0.018119238
147	0xd2	-0.055565666
148	0xdf	-0.039862324
149	0xb8	-0.08697235
150	0x48	0.08697235
151	0xf9	-0.008455644
152	0x35	0.06402131
153	0x2d	0.054357715
154	0x39	0.06885311
155	0xe2	-0.036238477
156	0xd4	-0.053149767
157	0xd5	-0.051941816
158	0xe5	-0.03261463
159	0x64	0.12079492
160	0x0f	0.018119238
161	0xb5	-0.09059619
162	0xd4	-0.053149767
163	0xd6	-0.050733868
164	0x46	0.084556445
165	0xd9	-0.04711002
166	0xa9	-0.10509159
167	0xd8	-0.04831797
168	0x53	0.10025979
169	0xa2	-0.11354723
170	0xf2	-0.016911289
171	0x48	0.08697235
172	0x03	0.0036238478
173	0x27	0.04711002
174	0xcb	-0.06402131
175	0xdb	-0.044694122
176	0x27	0.04711002
177	0x60	0.11596313
178	0xa7	-0.10750748
179	0x21	0.039862324
180	0xc4	-0.07247695
181	0x30	0.057981566
182	0x64	0.12079492
183	0xfd	-0.0036238478
184	0x45	0.0833485
185	0x33	0.061605413
186	0xa8	-0.106299534
187	0x49	0.088180296
188	0xe1	-0.037446428
189	0x18	0.028990783
190	0x23	0.042278223
191	0xd5	-0.051941816
192	0xd3	-0.054357715
193	0x24	0.043486174
194	0x26	0.04590207
195	0xdd	-0.042278223
196	0xbc	-0.08214055
197	0x42	0.07972465
198	0x12	0.021743087
199	0xa9	-0.10509159
200	0xef	-0.020535138
201	0xbe	-0.07972465
202	0x28	0.04831797
203	0x1f	0.037446428
204	0xbd	-0.0809326
205	0x55	0.102675684
206	0x00	0.0
207	0xcb	-0.06402131
208	0x3e	0.074892856
209	0x42	0.07972465
210	0xdc	-0.043486174
211	0xbf	-0.0785167
212	0x3c	0.07247695
213	0xa6	-0.10871543
214	0x14	0.024158984
215	0xbb	-0.0833485
216	0xd0	-0.057981566
217	0x4d	0.093012094
218	0xb9	-0.08576439
219	0xff	-0.0012079492
220	0xf2	-0.016911289
221	0x48	0.08697235
222	0x1d	0.03503053
223	0xac	-0.101467736
224	0xbc	-0.08214055
225	0x3d	0.0736849
226	0x0d	0.015703341
227	0x2b	0.051941816
228	0xdb	-0.044694122
229	0x31	0.059189513
230	0x25	0.044694122
231	0xc5	-0.071269006
232	0x3a	0.07006106
233	0xee	-0.021743087
234	0xe6	-0.031406682
235	0xe2	-0.036238477
236	0xe1	-0.037446428
237	0x5d	0.11233928
238	0xe6	-0.031406682
239	0xf3	-0.015703341
240	0xf0	-0.019327188
241	0xc3	-0.0736849
242	0x2e	0.055565666
243	0x07	0.008455644
244	0x44	0.08214055
245	0xf2	-0.016911289
246	0xf4	-0.014495391
247	0xd5	-0.051941816
248	0xf1	-0.018119238
249	0xe4	-0.033822577
250	0xdf	-0.039862324
251	0xa7	-0.10750748
252	0x39	0.06885311
253	0xda	-0.04590207
254	0x4b	0.09059619
255	0x27	0.04711002

sequential/dense/MatMul i1 [256, 608] scale=0.0010192365 zero_point=0
0	0xfa	-0.006115419
1	0x02	0.002038473
2	0xea	-0.022423204
3	0xc5	-0.060134955
4	0x2a	0.042807933
5	0xf7	-0.009173129
6	0xd5	-0.04382717
7	0x21	0.033634804
8	0xdf	-0.033634804
9	0xf2	-0.014269311
10	0x2f	0.047904115
11	0x47	0.07236579
12	0x11	0.01732702
13	0xae	-0.083577394
14	0x1d	0.02955786
15	0x03	0.0030577094
16	0x3a	0.05911572
17	0xdd	-0.03567328
18	0x16	0.022423204
19	0xb3	-0.07848121
20	0xff	-0.0010192365
21	0xaf	-0.082558155
22	0xdf	-0.033634804
23	0x09	0.009173129
24	0x2b	0.04382717
25	0x13	0.019365493
26	0xea	-0.022423204
27	0x04	0.004076946
28	0xc6	-0.05911572
29	0xe7	-0.025480913
30	0x3a	0.05911572
31	0x03	0.0030577094
32	0x30	0.04892335
33	0xd3	-0.045865644
34	0x29	0.041788697
35	0xcb	-0.054019537
36	0xf1	-0.015288548
37	0x49	0.07440426
38	0xfb	-0.0050961827
39	0x26	0.038730986
40	0xf8	-0.008153892
41	0x27	0.039750226
42	0xdc	-0.036692515
43	0x1c	0.028538622
44	0x08	0.008153892
45	0x3e	0.063192666
46	0x1a	0.026500149
47	0x4a	0.0754235
48	0x43	0.06828885
49	0x2e	0.04688488
50	0xfa	-0.006115419
51	0x14	0.02038473
52	0xcb	-0.054019537
53	0x22	0.03465404
54	0xb4	-0.07746197
55	0xc1	-0.0642119
56	0xeb	-0.021403966
57	0xfc	-0.004076946
58	0x32	0.050961826
59	0x18	0.024461675
60	0xbe	-0.06726961
61	0x0e	0.014269311
62	0xfa	-0.006115419
63	0xda	-0.038730986
64	0x39	0.05809648
65	0x2c	0.044846408
66	0x3b	0.060134955
67	0x28	0.04076946
68	0xc8	-0.057077244
69	0xd5	-0.04382717
70	0xfa	-0.006115419
71	0x23	0.03567328
72	0xa8	-0.089692816
73	0x15	0.021403966
74	0xdb	-0.03771175
75	0x07	0.0071346555
76	0x45	0.07032732
77	0xbf	-0.06625038
78	0x26	0.038730986
79	0xdb	-0.03771175
80	0xb3	-0.07848121
81	0xd3	-0.045865644
82	0x22	0.03465404
83	0xff	-0.0010192365
84	0x0f	0.015288548
85	0x0c	0.012230838
86	0xbd	-0.06828885
87	0xa4	-0.09376976
88	0x2e	0.04688488
89	0x09	0.009173129
90	0xa6	-0.09173129
91	0xf3	-0.013250074
92	0xbd	-0.06828885
93	0x01	0.0010192365
94	0x20	0.03261557
95	0xde	-0.03465404
96	0xde	-0.03465404
97	0x64	0.10192365
98	0x3e	0.063192666
99	0x2d	0.045865644
100	0x3f	0.0642119
101	0x39	0.05809648
102	0x1a	0.026500149
103	0x32	0.050961826
104	0xb0	-0.08153892
105	0x3a	0.05911572
106	0x03	0.0030577094
107	0xbe	-0.06726961
108	0x14	0.02038473
109	0x66	0.10396212
110	0xed	-0.019365493
111	0x42	0.06726961
112	0xf4	-0.012230838
113	0x2b	0.04382717
114	0xd4	-0.044846408
115	0x33	0.05198106
116	0x39	0.05809648
117	0x00	0.0
118	0x6c	0.110077545
119	0x3d	0.062173426
120	0xea	-0.022423204
121	0x21	0.033634804
122	0xba	-0.07134656
123	0xb1	-0.08051968
124	0x46	0.07134656
125	0x3a	0.05911572
126	0xb1	-0.08051968
127	0x1f	0.031596333
128	0x20	0.03261557
129	0x11	0.01732702
130	0x42	0.06726961
131	0x04	0.004076946
132	0x1c	0.028538622
133	0x1a	0.026500149
134	0x2e	0.04688488
135	0x2c	0.044846408
136	0x5f	0.09682747
137	0xf0	-0.016307784
138	0x00	0.0
139	0x50	0.08153892
140	0x2d	0.045865644
141	0xe2	-0.030577095
142	0x5f	0.09682747
143	0xcd	-0.05198106
144	0x16	0.022423204
145	0x2d	0.045865644
146	0xea	-0.022423204
147	0x0c	0.012230838
148	0xfb	-0.0050961827
149	0xf7	-0.009173129
150	0x2d	0.045865644
151	0xda	-0.038730986
152	0x28	0.04076946
153	0xdd	-0.03567328
154	0xcf	-0.04994259
155	0x30	0.04892335
156	0xdb	-0.03771175
157	0x49	0.07440426
158	0xcb	-0.054019537
159	0x0a	0.010192365
160	0xe3	-0.02955786
161	0x54	0.085615866
162	0x48	0.07338503
163	0xfe	-0.002038473
164	0xd6	-0.042807933
165	0xf5	-0.011211602
166	0xfa	-0.006115419
167	0x3f	0.0642119
168	0x05	0.0050961827
169	0xb7	-0.07440426
170	0xe1	-0.031596333
171	0xc2	-0.063192666
172	0x26	0.038730986
173	0x35	0.054019537
174	0xe8	-0.024461675
175	0xcf	-0.04994259
176	0xc0	-0.06523114
177	0xbf	-0.06625038
178	0xab	-0.086635105
179	0xd9	-0.039750226
180	0x22	0.03465404
181	0xf3	-0.013250074
182	0xeb	-0.021403966
183	0xef	-0.01732702
184	0x04	0.004076946
185	0x3e	0.063192666
186	0x46	0.07134656
187	0xe5	-0.027519386
188	0x1b	0.027519386
189	0xfc	-0.004076946
190	0xbe	-0.06726961
191	0x13	0.019365493
192	0xd9	-0.039750226
193	0xc4	-0.06115419
194	0x56	0.08765434
195	0x19	0.025480913
196	0xeb	-0.021403966
197	0x51	0.082558155
198	0xee	-0.018346258
199	0xbc	-0.06930808
200	0x16	0.022423204
201	0xee	-0.018346258
202	0xa4	-0.09376976
203	0x49	0.07440426
204	0xec	-0.02038473
205	0x2a	0.042807933
206	0xf2	-0.014269311
207	0xd8	-0.04076946
208	0xd2	-0.04688488
209	0x21	0.033634804
210	0xdc	-0.036692515
211	0xfb	-0.0050961827
212	0xff	-0.0010192365
213	0xf7	-0.009173129
214	0xc4	-0.06115419
215	0xde	-0.03465404
216	0x3d	0.062173426
217	0xb0	-0.08153892
218	0x4f	0.08051968
219	0x23	0.03567328
220	0xb8	-0.07338503
221	0xf4	-0.012230838
222	0x1a	0.026500149
223	0xe6	-0.026500149
224	0xff	-0.0010192365
225	0xd6	-0.042807933
226	0xba	-0.07134656
227	0x1a	0.026500149
228	0x3b	0.060134955
229	0xf0	-0.016307784
230	0x4f	0.08051968
231	0xb6	-0.0754235
232	0xc7	-0.05809648
233	0xaf	-0.082558155
234	0xd3	-0.045865644
235	0x24	0.036692515
236	0x2a	0.042807933
237	0xaf	-0.082558155
238	0x3c	0.06115419
239	0x1a	0.026500149
240	0xe8	-0.024461675
241	0x0c	0.012230838
242	0x0f	0.015288548
243	0xd8	-0.04076946
244	0xec	-0.02038473
245	0xad	-0.084596634
246	0x1f	0.031596333
247	0xca	-0.055038773
248	0x41	0.06625038
249	0xf4	-0.012230838
250	0x30	0.04892335
251	0x10	0.016307784
252	0x36	0.055038773
253	0xdc	-0.036692515
254	0x02	0.002038473
255	0xb0	-0.08153892
